…
    results_root: D:\Fang\study\my_code\Github_code\Kernel_Uncertainty\results\0711_aniso_x4_test_nouncer
    log: D:\Fang\study\my_code\Github_code\Kernel_Uncertainty\results\0711_aniso_x4_test_nouncer
  ]
  is_train: False

22-07-12 16:34:38.464 - INFO: Dataset [GTDataset - Set14] is created.
22-07-12 16:34:38.464 - INFO: Number of test images in [Set14]: 14
22-07-12 16:34:38.497 - INFO: Network G structure: DataParallel - BlindNet, with parameters: 2,888,515
22-07-12 16:34:38.498 - INFO: BlindNet(
  (kernel_extra): kernel_extra_mean_var(
    (Encoding_Block1): kernel_extra_Encoding_Block(
      (Conv_head): Conv2d(3, 64, kernel_size=(3, 3), stride=(1, 1), padding=(1, 1))
      (ResBlock1): ResBlock(
        (body): Sequential(
          (0): ReLU()
          (1): Conv2d(64, 64, kernel_size=(3, 3), stride=(1, 1), padding=(1, 1))
          (2): ReLU()
          (3): Conv2d(64, 64, kernel_size=(3, 3), stride=(1, 1), padding=(1, 1))
        )
      )
      (ResBlock2): ResBlock(
        (body): Sequential(
          (0): ReLU()
          (1): Conv2d(64, 64, kernel_size=(3, 3), stride=(1, 1), padding=(1, 1))
          (2): ReLU()
          (3): Conv2d(64, 64, kernel_size=(3, 3), stride=(1, 1), padding=(1, 1))
        )
      )
      (downsample): Conv2d(64, 64, kernel_size=(3, 3), stride=(2, 2), padding=(1, 1))
      (act): ReLU()
    )
    (Encoding_Block2): kernel_extra_Encoding_Block(
      (Conv_head): Conv2d(64, 64, kernel_size=(3, 3), stride=(1, 1), padding=(1, 1))
      (ResBlock1): ResBlock(
        (body): Sequential(
          (0): ReLU()
          (1): Conv2d(64, 64, kernel_size=(3, 3), stride=(1, 1), padding=(1, 1))
          (2): ReLU()
          (3): Conv2d(64, 64, kernel_size=(3, 3), stride=(1, 1), padding=(1, 1))
        )
      )
      (ResBlock2): ResBlock(
        (body): Sequential(
          (0): ReLU()
          (1): Conv2d(64, 64, kernel_size=(3, 3), stride=(1, 1), padding=(1, 1))
          (2): ReLU()
          (3): Conv2d(64, 64, kernel_size=(3, 3), stride=(1, 1), padding=(1, 1))
        )
      )
      (downsample): Conv2d(64, 64, kernel_size=(3, 3), stride=(2, 2), padding=(1, 1))
      (act): ReLU()
    )
    (Conv_mid): kernel_extra_conv_mid(
      (body): Sequential(
        (0): Conv2d(64, 64, kernel_size=(3, 3), stride=(1, 1), padding=(1, 1))
        (1): ReLU()
        (2): Conv2d(64, 64, kernel_size=(3, 3), stride=(1, 1), padding=(1, 1))
        (3): ReLU()
        (4): Conv2d(64, 64, kernel_size=(3, 3), stride=(1, 1), padding=(1, 1))
        (5): ReLU()
        (6): Conv2d(64, 64, kernel_size=(3, 3), stride=(1, 1), padding=(1, 1))
        (7): ReLU()
        (8): Conv2d(64, 64, kernel_size=(3, 3), stride=(1, 1), padding=(1, 1))
        (9): ReLU()
      )
    )
    (Decoding_Block1): kernel_extra_Decoding_Block(
      (Conv_t): ConvTranspose2d(64, 64, kernel_size=(3, 3), stride=(2, 2), padding=(1, 1))
      (Conv_head): Conv2d(128, 64, kernel_size=(3, 3), stride=(1, 1), padding=(1, 1))
      (ResBlock1): ResBlock(
        (body): Sequential(
          (0): ReLU()
          (1): Conv2d(64, 64, kernel_size=(3, 3), stride=(1, 1), padding=(1, 1))
          (2): ReLU()
          (3): Conv2d(64, 64, kernel_size=(3, 3), stride=(1, 1), padding=(1, 1))
        )
      )
      (ResBlock2): ResBlock(
        (body): Sequential(
          (0): ReLU()
          (1): Conv2d(64, 64, kernel_size=(3, 3), stride=(1, 1), padding=(1, 1))
          (2): ReLU()
          (3): Conv2d(64, 64, kernel_size=(3, 3), stride=(1, 1), padding=(1, 1))
        )
      )
      (act): ReLU()
    )
    (Decoding_Block2): kernel_extra_Decoding_Block(
      (Conv_t): ConvTranspose2d(64, 64, kernel_size=(3, 3), stride=(2, 2), padding=(1, 1))
      (Conv_head): Conv2d(128, 64, kernel_size=(3, 3), stride=(1, 1), padding=(1, 1))
      (ResBlock1): ResBlock(
        (body): Sequential(
          (0): ReLU()
          (1): Conv2d(64, 64, kernel_size=(3, 3), stride=(1, 1), padding=(1, 1))
          (2): ReLU()
          (3): Conv2d(64, 64, kernel_size=(3, 3), stride=(1, 1), padding=(1, 1))
        )
      )
      (ResBlock2): ResBlock(
        (body): Sequential(
          (0): ReLU()
          (1): Conv2d(64, 64, kernel_size=(3, 3), stride=(1, 1), padding=(1, 1))
          (2): ReLU()
          (3): Conv2d(64, 64, kernel_size=(3, 3), stride=(1, 1), padding=(1, 1))
        )
      )
      (act): ReLU()
    )
    (Conv_tail): kernel_extra_conv_tail_mean_var(
      (mean): Sequential(
        (0): Conv2d(64, 64, kernel_size=(3, 3), stride=(1, 1), padding=(1, 1))
        (1): ReLU()
      )
      (log_var): Sequential(
        (0): Conv2d(64, 64, kernel_size=(3, 3), stride=(1, 1), padding=(1, 1))
      )
      (Conv_end): Conv2d(64, 441, kernel_size=(3, 3), stride=(1, 1), padding=(1, 1))
    )
  )
  (SR_net): DLSM(
    (Encoding): Encoding(
      (E1): Sequential(
        (0): Conv2d(32, 32, kernel_size=(3, 3), stride=(1, 1), padding=(1, 1))
        (1): ReLU()
        (2): Conv2d(32, 32, kernel_size=(3, 3), stride=(1, 1), padding=(1, 1))
        (3): ReLU()
      )
      (E2): Sequential(
        (0): Conv2d(32, 64, kernel_size=(3, 3), stride=(1, 1), padding=(1, 1))
        (1): ReLU()
        (2): Conv2d(64, 64, kernel_size=(3, 3), stride=(1, 1), padding=(1, 1))
        (3): ReLU()
      )
      (E3): Sequential(
        (0): Conv2d(64, 64, kernel_size=(3, 3), stride=(1, 1), padding=(1, 1))
        (1): ReLU()
        (2): Conv2d(64, 64, kernel_size=(3, 3), stride=(1, 1), padding=(1, 1))
        (3): ReLU()
      )
      (E4): Sequential(
        (0): Conv2d(64, 128, kernel_size=(3, 3), stride=(1, 1), padding=(1, 1))
        (1): ReLU()
        (2): Conv2d(128, 128, kernel_size=(3, 3), stride=(1, 1), padding=(1, 1))
        (3): ReLU()
      )
      (E5): Sequential(
        (0): Conv2d(128, 128, kernel_size=(3, 3), stride=(1, 1), padding=(1, 1))
        (1): ReLU()
        (2): Conv2d(128, 128, kernel_size=(3, 3), stride=(1, 1), padding=(1, 1))
        (3): ReLU()
      )
    )
    (Decoding): Decoding(
      (D1): Sequential(
        (0): Conv2d(256, 128, kernel_size=(3, 3), stride=(1, 1), padding=(1, 1))
        (1): ReLU()
        (2): Conv2d(128, 128, kernel_size=(3, 3), stride=(1, 1), padding=(1, 1))
        (3): ReLU()
      )
      (D2): Sequential(
        (0): Conv2d(192, 64, kernel_size=(3, 3), stride=(1, 1), padding=(1, 1))
        (1): ReLU()
        (2): Conv2d(64, 64, kernel_size=(3, 3), stride=(1, 1), padding=(1, 1))
        (3): ReLU()
      )
      (D3): Sequential(
        (0): Conv2d(128, 64, kernel_size=(3, 3), stride=(1, 1), padding=(1, 1))
        (1): ReLU()
        (2): Conv2d(64, 64, kernel_size=(3, 3), stride=(1, 1), padding=(1, 1))
        (3): ReLU()
      )
      (D4): Sequential(
        (0): Conv2d(96, 32, kernel_size=(3, 3), stride=(1, 1), padding=(1, 1))
        (1): ReLU()
        (2): Conv2d(32, 32, kernel_size=(3, 3), stride=(1, 1), padding=(1, 1))
        (3): ReLU()
      )
      (w_generator): Sequential(
        (0): Conv2d(32, 32, kernel_size=(3, 3), stride=(1, 1), padding=(1, 1))
        (1): ReLU()
        (2): Conv2d(32, 32, kernel_size=(3, 3), stride=(1, 1), padding=(1, 1))
        (3): ReLU()
        (4): Conv2d(32, 3, kernel_size=(1, 1), stride=(1, 1))
      )
      (u_generator): Sequential(
        (0): Conv2d(32, 32, kernel_size=(3, 3), stride=(1, 1), padding=(1, 1))
        (1): ReLU()
        (2): Conv2d(32, 32, kernel_size=(3, 3), stride=(1, 1), padding=(1, 1))
        (3): ReLU()
        (4): Conv2d(32, 3, kernel_size=(1, 1), stride=(1, 1))
      )
    )
    (conv): Conv2d(3, 32, kernel_size=(3, 3), stride=(1, 1), padding=(1, 1))
    (Den_con1): Conv2d(32, 32, kernel_size=(1, 1), stride=(1, 1))
    (Den_con2): Conv2d(64, 32, kernel_size=(1, 1), stride=(1, 1))
    (Den_con3): Conv2d(96, 32, kernel_size=(1, 1), stride=(1, 1))
    (Den_con4): Conv2d(128, 32, kernel_size=(1, 1), stride=(1, 1))
  )
)
22-07-12 16:34:38.505 - INFO: Loading model for G [../experiments/pretrained_models/0222_aniso_x4/370000_G.pth] ...
22-07-12 16:34:38.521 - INFO: Model [B_Model] is created.
22-07-12 16:34:38.521 - INFO: 
Testing [Set14]...
22-07-12 16:34:39.175 - INFO: img_001              - PSNR/SSIM: 0.00/0.0000; PSNR_Y/SSIM_Y: 22.02/0.4319; LR_PSNR_Y/LR_SSIM_Y: inf/1.0000; PSNR_K: 53.15 dB.
…
