…
    results_root: D:\Fang\study\my_code\Github_code\UncertaintySR\results\0713_aniso_x4_test_for_real
    log: D:\Fang\study\my_code\Github_code\UncertaintySR\results\0713_aniso_x4_test_for_real
  ]
  is_train: False

22-07-13 11:13:50.681 - INFO: Dataset [LQDataset - real] is created.
22-07-13 11:13:50.681 - INFO: Number of test images in [real]: 10
22-07-13 11:13:51.950 - INFO: Network G structure: DataParallel - BlindNet, with parameters: 2,888,515
22-07-13 11:13:51.950 - INFO: BlindNet(
  (kernel_extra): kernel_extra_mean_var(
    (Encoding_Block1): kernel_extra_Encoding_Block(
      (Conv_head): Conv2d(3, 64, kernel_size=(3, 3), stride=(1, 1), padding=(1, 1))
      (ResBlock1): ResBlock(
        (body): Sequential(
          (0): ReLU()
          (1): Conv2d(64, 64, kernel_size=(3, 3), stride=(1, 1), padding=(1, 1))
          (2): ReLU()
          (3): Conv2d(64, 64, kernel_size=(3, 3), stride=(1, 1), padding=(1, 1))
        )
      )
      (ResBlock2): ResBlock(
        (body): Sequential(
          (0): ReLU()
          (1): Conv2d(64, 64, kernel_size=(3, 3), stride=(1, 1), padding=(1, 1))
          (2): ReLU()
          (3): Conv2d(64, 64, kernel_size=(3, 3), stride=(1, 1), padding=(1, 1))
        )
      )
      (downsample): Conv2d(64, 64, kernel_size=(3, 3), stride=(2, 2), padding=(1, 1))
      (act): ReLU()
    )
    (Encoding_Block2): kernel_extra_Encoding_Block(
      (Conv_head): Conv2d(64, 64, kernel_size=(3, 3), stride=(1, 1), padding=(1, 1))
      (ResBlock1): ResBlock(
        (body): Sequential(
          (0): ReLU()
          (1): Conv2d(64, 64, kernel_size=(3, 3), stride=(1, 1), padding=(1, 1))
          (2): ReLU()
          (3): Conv2d(64, 64, kernel_size=(3, 3), stride=(1, 1), padding=(1, 1))
        )
      )
      (ResBlock2): ResBlock(
        (body): Sequential(
          (0): ReLU()
          (1): Conv2d(64, 64, kernel_size=(3, 3), stride=(1, 1), padding=(1, 1))
          (2): ReLU()
          (3): Conv2d(64, 64, kernel_size=(3, 3), stride=(1, 1), padding=(1, 1))
        )
      )
      (downsample): Conv2d(64, 64, kernel_size=(3, 3), stride=(2, 2), padding=(1, 1))
      (act): ReLU()
    )
    (Conv_mid): kernel_extra_conv_mid(
      (body): Sequential(
        (0): Conv2d(64, 64, kernel_size=(3, 3), stride=(1, 1), padding=(1, 1))
        (1): ReLU()
        (2): Conv2d(64, 64, kernel_size=(3, 3), stride=(1, 1), padding=(1, 1))
        (3): ReLU()
        (4): Conv2d(64, 64, kernel_size=(3, 3), stride=(1, 1), padding=(1, 1))
        (5): ReLU()
        (6): Conv2d(64, 64, kernel_size=(3, 3), stride=(1, 1), padding=(1, 1))
        (7): ReLU()
        (8): Conv2d(64, 64, kernel_size=(3, 3), stride=(1, 1), padding=(1, 1))
        (9): ReLU()
      )
    )
    (Decoding_Block1): kernel_extra_Decoding_Block(
      (Conv_t): ConvTranspose2d(64, 64, kernel_size=(3, 3), stride=(2, 2), padding=(1, 1))
      (Conv_head): Conv2d(128, 64, kernel_size=(3, 3), stride=(1, 1), padding=(1, 1))
      (ResBlock1): ResBlock(
        (body): Sequential(
          (0): ReLU()
          (1): Conv2d(64, 64, kernel_size=(3, 3), stride=(1, 1), padding=(1, 1))
          (2): ReLU()
          (3): Conv2d(64, 64, kernel_size=(3, 3), stride=(1, 1), padding=(1, 1))
        )
      )
      (ResBlock2): ResBlock(
        (body): Sequential(
          (0): ReLU()
          (1): Conv2d(64, 64, kernel_size=(3, 3), stride=(1, 1), padding=(1, 1))
          (2): ReLU()
          (3): Conv2d(64, 64, kernel_size=(3, 3), stride=(1, 1), padding=(1, 1))
        )
      )
      (act): ReLU()
    )
    (Decoding_Block2): kernel_extra_Decoding_Block(
      (Conv_t): ConvTranspose2d(64, 64, kernel_size=(3, 3), stride=(2, 2), padding=(1, 1))
      (Conv_head): Conv2d(128, 64, kernel_size=(3, 3), stride=(1, 1), padding=(1, 1))
      (ResBlock1): ResBlock(
        (body): Sequential(
          (0): ReLU()
          (1): Conv2d(64, 64, kernel_size=(3, 3), stride=(1, 1), padding=(1, 1))
          (2): ReLU()
          (3): Conv2d(64, 64, kernel_size=(3, 3), stride=(1, 1), padding=(1, 1))
        )
      )
      (ResBlock2): ResBlock(
        (body): Sequential(
          (0): ReLU()
          (1): Conv2d(64, 64, kernel_size=(3, 3), stride=(1, 1), padding=(1, 1))
          (2): ReLU()
          (3): Conv2d(64, 64, kernel_size=(3, 3), stride=(1, 1), padding=(1, 1))
        )
      )
      (act): ReLU()
    )
    (Conv_tail): kernel_extra_conv_tail_mean_var(
      (mean): Sequential(
        (0): Conv2d(64, 64, kernel_size=(3, 3), stride=(1, 1), padding=(1, 1))
        (1): ReLU()
      )
      (log_var): Sequential(
        (0): Conv2d(64, 64, kernel_size=(3, 3), stride=(1, 1), padding=(1, 1))
      )
      (Conv_end): Conv2d(64, 441, kernel_size=(3, 3), stride=(1, 1), padding=(1, 1))
    )
  )
  (SR_net): DLSM(
    (Encoding): Encoding(
      (E1): Sequential(
        (0): Conv2d(32, 32, kernel_size=(3, 3), stride=(1, 1), padding=(1, 1))
        (1): ReLU()
        (2): Conv2d(32, 32, kernel_size=(3, 3), stride=(1, 1), padding=(1, 1))
        (3): ReLU()
      )
      (E2): Sequential(
        (0): Conv2d(32, 64, kernel_size=(3, 3), stride=(1, 1), padding=(1, 1))
        (1): ReLU()
        (2): Conv2d(64, 64, kernel_size=(3, 3), stride=(1, 1), padding=(1, 1))
        (3): ReLU()
      )
      (E3): Sequential(
        (0): Conv2d(64, 64, kernel_size=(3, 3), stride=(1, 1), padding=(1, 1))
        (1): ReLU()
        (2): Conv2d(64, 64, kernel_size=(3, 3), stride=(1, 1), padding=(1, 1))
        (3): ReLU()
      )
      (E4): Sequential(
        (0): Conv2d(64, 128, kernel_size=(3, 3), stride=(1, 1), padding=(1, 1))
        (1): ReLU()
        (2): Conv2d(128, 128, kernel_size=(3, 3), stride=(1, 1), padding=(1, 1))
        (3): ReLU()
      )
      (E5): Sequential(
        (0): Conv2d(128, 128, kernel_size=(3, 3), stride=(1, 1), padding=(1, 1))
        (1): ReLU()
        (2): Conv2d(128, 128, kernel_size=(3, 3), stride=(1, 1), padding=(1, 1))
        (3): ReLU()
      )
    )
    (Decoding): Decoding(
      (D1): Sequential(
        (0): Conv2d(256, 128, kernel_size=(3, 3), stride=(1, 1), padding=(1, 1))
        (1): ReLU()
        (2): Conv2d(128, 128, kernel_size=(3, 3), stride=(1, 1), padding=(1, 1))
        (3): ReLU()
      )
      (D2): Sequential(
        (0): Conv2d(192, 64, kernel_size=(3, 3), stride=(1, 1), padding=(1, 1))
        (1): ReLU()
        (2): Conv2d(64, 64, kernel_size=(3, 3), stride=(1, 1), padding=(1, 1))
        (3): ReLU()
      )
      (D3): Sequential(
        (0): Conv2d(128, 64, kernel_size=(3, 3), stride=(1, 1), padding=(1, 1))
        (1): ReLU()
        (2): Conv2d(64, 64, kernel_size=(3, 3), stride=(1, 1), padding=(1, 1))
        (3): ReLU()
      )
      (D4): Sequential(
        (0): Conv2d(96, 32, kernel_size=(3, 3), stride=(1, 1), padding=(1, 1))
        (1): ReLU()
        (2): Conv2d(32, 32, kernel_size=(3, 3), stride=(1, 1), padding=(1, 1))
        (3): ReLU()
      )
      (w_generator): Sequential(
        (0): Conv2d(32, 32, kernel_size=(3, 3), stride=(1, 1), padding=(1, 1))
        (1): ReLU()
        (2): Conv2d(32, 32, kernel_size=(3, 3), stride=(1, 1), padding=(1, 1))
        (3): ReLU()
        (4): Conv2d(32, 3, kernel_size=(1, 1), stride=(1, 1))
      )
      (u_generator): Sequential(
        (0): Conv2d(32, 32, kernel_size=(3, 3), stride=(1, 1), padding=(1, 1))
        (1): ReLU()
        (2): Conv2d(32, 32, kernel_size=(3, 3), stride=(1, 1), padding=(1, 1))
        (3): ReLU()
        (4): Conv2d(32, 3, kernel_size=(1, 1), stride=(1, 1))
      )
    )
    (conv): Conv2d(3, 32, kernel_size=(3, 3), stride=(1, 1), padding=(1, 1))
    (Den_con1): Conv2d(32, 32, kernel_size=(1, 1), stride=(1, 1))
    (Den_con2): Conv2d(64, 32, kernel_size=(1, 1), stride=(1, 1))
    (Den_con3): Conv2d(96, 32, kernel_size=(1, 1), stride=(1, 1))
    (Den_con4): Conv2d(128, 32, kernel_size=(1, 1), stride=(1, 1))
  )
)
22-07-13 11:13:51.951 - INFO: Loading model for G [../experiments/pretrained_models/x4/latest_G.pth] ...
22-07-13 11:13:51.967 - INFO: Model [B_Model] is created.
22-07-13 11:13:51.968 - INFO: 
Testing [real]...
22-07-13 11:13:56.605 - INFO: img001               - LR_PSNR_Y/LR_SSIM_Y: inf/1.0000
22-07-13 11:14:04.049 - INFO: img002               - LR_PSNR_Y/LR_SSIM_Y: inf/1.0000
…
